modelo_pytorch.pth (torch, 44649 bytes, 5 tensors)

network.0.weight f4 [128, 15]
0.19044508 -0.037352543 -0.14843056 0.2628816 0.12586085 0.0056734732 0.21566142 -0.009579625
-0.22576347 0.18466385 0.10631498 -0.31655362 0.077922806 0.057635773 -0.23856044 0.25186723
0.14047064 0.3157413 -0.15578535 -0.26587087 0.03651616 0.24361391 0.04162322 -0.043416508
-0.047406763 0.211776 0.15297873 -0.046136692 0.20523405 -0.061437488 0.042614073 0.051164955
0.011335641 -0.08066554 -0.16290376 -0.2157948 -0.17129959 -0.13379298 -0.06623922 -0.08729839
0.13396269 -0.19546294 0.075711995 -0.09566462 -0.1400626 0.2654774 0.35109833 0.24780567
-0.28724566 0.05903857 -0.22622395 0.113507256 0.16600165 -0.119139954 -0.035670925 0.03179462
-0.049117148 -0.21051706 -0.1362143 -0.3073445 -0.26525995 0.17244098 -0.20263603 0.20436752
0.054716814 0.08978511 -0.2006449 -0.11757727 0.0074150534 0.11086862 0.06549991 0.2011055
-0.017703263 -0.10318256 0.16856791 0.21061403 -0.23801014 0.049797244 -0.27503255 0.14372772
-0.36597797 -0.16967584 0.008111527 0.22613387 0.1613477 -0.37750787 0.1850078 -0.030597301
-0.010945545 -0.18013194 -0.2099995 -0.05360661 0.01616978 0.25580466 0.12278306 -0.0054621687
-0.08909666 0.18618636 0.19524892 0.2902432 0.047812577 -0.29755127 0.22985217 0.024883494
0.20657778 0.1037833 -0.02126409 0.12271332 0.15096876 0.13304588 0.23856243 0.22083466
0.0028654458 -0.046222672 0.073088095 -0.19612882 0.09924327 -0.07874261 -0.1642925 0.05716623
0.0051408373 0.25137872 -0.21786302 0.1466288 0.16086082 -0.2897155 0.14699917 -0.12606487
-0.3347979 -0.0062722224 -0.045543093 -0.25215012 0.10490296 0.21932688 -0.51085466 0.055971164
-0.29616684 0.23639545 -0.25484538 0.031114986 -0.068735495 0.22278982 0.0852507 0.111337006
-0.12937626 0.11230986 -0.12719515 0.059753854 0.14634569 -0.2070292 0.19475506 -0.31131095
0.23635426 0.21760496 -0.09666002 -0.13742746 0.08837117 -0.18835244 -0.3554751 -0.0070355674
-0.21439667 -0.29186556 -0.10230212 0.02187425 0.15580297 0.092394836 -0.19418949 -0.19168295
0.11976268 0.052893393 -0.21631068 0.0050668567 -0.18411703 0.022741878 -0.26215723 0.010932492
0.17882718 0.09373688 0.05028569 0.07817219 -0.03345414 -0.25964043 0.26321992 -0.20707186
0.22223362 0.07159421 0.013263555 -0.09724888 0.31802458 -0.10217777 0.040375087 0.15952642
0.10195852 0.23398764 -0.17004645 0.4183563 0.16660598 0.25720373 -0.3055822 -0.1834186
-0.094440416 -0.08581037 -0.08636698 -0.19865575 -0.16051406 -0.07887996 0.1166379 -0.21414946
-0.28975484 0.13414389 0.39268813 0.11014187 -0.06711963 -0.11044248 0.15736578 -0.1719837
-0.2362901 0.057273846 0.2951399 0.06287563 0.14785768 -0.23319022 -0.1953523 -0.09952095
-0.16734654 0.024849411 0.041089818 -0.12325244 -0.34132242 0.14920965 -0.27415547 0.24617872
-0.028657798 0.11576991 0.052793145 0.16254872 -0.26630643 -0.31980667 0.1852827 0.0553989
-0.26013997 -0.09029931 -0.10707676 -0.14373288 0.17750284 -0.18420215 0.06725909 -0.21546693
-0.3640828 0.19975352 0.024498606 -0.14983286 0.10999445 -0.24826081 -0.08625884 -0.21924153
00000000: 0904 433e fbfe 18bd 2efe 17be 6b98 863e
00000010: abe1 003e 8be8 b93b 59d6 5c3e dcf3 1cbc
00000020: 8a2e 67be 8518 3d3e abbb d93d 5113 a2be
00000030: fe95 9f3d 7d13 6c3d 3049 74be bef4 803e
00000040: 89d7 0f3e d8a8 a13e 3286 1fbe 3a20 88be
00000050: f891 153d ed75 793e 1c7d 2a3d 82d5 31bd
00000060: 982d 42bd cfdb 583e 75a6 1c3e d4f9 3cbd
00000070: e028 523e e0a5 7bbd 188c 2e3d 5892 513d
00000080: 20b9 393c fa33 a5bd 3ed0 26be 50f9 5cbe
00000090: 2969 2fbe 0701 09be 6ea8 87bd 80c9 b2bd
000000a0: 842d 093e 7027 48be e40e 9b3d d0eb c3bd
000000b0: 926c 0fbe a7ec 873e 29c3 b33e c5c0 7d3e
000000c0: dd11 93be 6dd2 713d 40a7 67be 7e76 e83d
000000d0: 56fc 293e a6ff f3bd ad1b 12bd 133b 023d
000000e0: 102f 49bd c991 57be c37b 0bbe 425c 9dbe
000000f0: 27d0 87be 5e94 303e d27f 4fbe b845 513e
00000100: bd1e 603d 41e1 b73d db75 4dbe 5acc f0bd
00000110: faf9 f23b 160f e33d d124 863d 9aee 4d3e
00000120: 6f06 91bc 6151 d3bd 119d 2c3e 34ab 573e
00000130: eeb8 73be 32f8 4b3d 11d1 8cbe 5c2d 133e
00000140: 7761 bbbe 81bf 2dbe 36e6 043c a38f 673e
00000150: 5538 253e b648 c1be af72 3d3e 31a7 fabc
00000160: f154 33bc 8274 38be 1c0a 57be 9b92 5bbd
00000170: 7d76 843c d4f8 823e af75 fb3d fefb b2bb
00000180: 4f78 b6bd a3a7 3e3e 55ef 473e c29a 943e
00000190: 1fd7 433d a458 98be 5e5e 6b3e 78d8 cb3c
000001a0: 2089 533e 578c d43d 0732 aebc 1f51 fb3d
000001b0: 8e97 1a3e 2e3d 083e b649 743e 7b22 623e
000001c0: 34ca 3b3b fc53 3dbd 36af 953d fed5 48be
000001d0: 0e40 cb3d ce43 a1bd 4b3c 28be 2327 6a3d
000001e0: 7874 a83b b6b4 803e 7c17 5fbe dc25 163e
000001f0: b3b8 243e 9755 94be f386 163e 2617 01be
00000200: a16a abbe 3787 cdbb 658b 3abd d219 81be
00000210: 5dd7 d63d 3a97 603e 5fc7 02bf 0542 653d
00000220: 2ea3 97be a611 723e 187b 82be dbe4 fe3c
00000230: 32c5 8cbd 0423 643e eb97 ae3d a804 e43d
00000240: 367b 04be b602 e63d 723f 02be 75c0 743d
00000250: a5db 153e 76ff 53be df6d 473e 2664 9fbe
00000260: da06 723e d6d3 5e3e b0f5 c5bd c9b9 0cbe
00000270: f2fb b43d 76df 40be d500 b6be 9e8a e6bb
00000280: cd8a 5bbe 676f 95be c683 d1bd a131 b33c
00000290: d08a 1f3e 8139 bd3d 9cd9 46be 8948 44be
000002a0: 2346 f53d bea6 583d 8c80 5dbe e007 a63b
000002b0: 2d89 3cbe 2d4d ba3c 7939 86be 321e 333c
000002c0: 791e 373e 1ff9 bf3d 5ef8 4d3d be18 a03d
000002d0: 3507 09bd 97ef 84be c3c4 863e a50a 54be
000002e0: 3691 633e fc9f 923d 624f 593c 6c2a c7bd
000002f0: 1ed4 a23e 9442 d1bd 5960 253d e55a 233e
00000300: a1cf d03d 759a 6f3e a820 2ebe cc32 d63e
00000310: c29a 2a3e 35b0 833e 4575 9cbe 16d2 3bbe
00000320: fa69 c1bd 59bd afbd 2ce1 b0bd 6a6c 4bbe
00000330: cc5d 24be d18b a1bd dadf ee3d ff49 5bbe
00000340: bf5a 94be 045d 093e 6b0e c93e 1092 e13d
00000350: 0476 89bd ab2f e2bd 7f24 213e 7f1c 30be
00000360: 08f6 71be fb97 6a3d 941c 973e f0c4 803d
00000370: 0168 173e 6bc9 6ebe 6f0a 48be a4d1 cbbd
00000380: e45c 2bbe fe90 cb3c cc4d 283d c66b fcbd
00000390: d0c1 aebe 6aca 183e 1b5e 8cbe 4616 7c3e
000003a0: c2c3 eabc c618 ed3d a03d 583d 2c73 263e
000003b0: 5159 88be b3bd a3be c0ba 3d3e f5e9 623d
000003c0: 1131 85be d8ee b8bd 0f4b dbbd b62e 13be
000003d0: 4ec3 353e 7d9f 3cbe 22bf 893d 5da3 5cbe
000003e0: 1069 babe 308c 4c3e 4db1 c83c c96d 19be
000003f0: c544 e13d 1538 7ebe 7aa8 b0bd da80 60be

network.0.bias f4 [128]
-0.16858087 0.0043938113 -0.23140103 -0.21364935 0.15287061 -0.18375883 -0.10338255 0.13417675
-0.23791972 0.013483163 -0.065334946 0.122563705 0.07209411 -0.007679156 -0.00456101 -0.155592
-0.04498475 -0.3087186 0.18356542 0.023091845 0.07042195 0.058111057 0.1993456 -0.056293573
-0.18620783 -0.014484936 -0.0017620357 -0.06723312 -0.11313044 -0.12588753 0.25597215 -0.09690172
-0.19063789 0.20330885 0.06452648 -0.08051705 0.09455332 0.073282346 -0.16757287 -0.029988373
0.27491835 -0.02722551 -0.09724427 0.13559301 -0.28614503 -0.15564428 0.13940386 -0.05004207
-0.1138327 0.09452841 -0.14911102 -0.26638174 0.021442706 -0.028777936 0.08447574 -0.036694158
0.030027835 0.089415655 0.0073022917 -0.12884548 -0.24192986 0.13828167 -0.09912903 0.24152978
0.070643544 -0.27076772 0.06431817 -0.11206382 0.038401913 0.045443848 0.27797416 -0.06215865
-0.11591488 0.08818112 0.112352304 -0.060926072 0.25088465 0.18745434 -0.10469048 -0.093984336
-0.16647638 -0.25360882 -0.12022393 -0.1929749 -0.019466085 -0.24108292 0.023816746 0.22480114
-0.08657392 0.04878265 -0.15902534 0.023343002 -0.18029726 0.06008593 -0.24063538 0.15952197
-0.024724875 0.1790209 -0.05402773 -0.01699941 -0.18815057 -0.02976361 -0.114576094 -0.02204286
0.10111535 0.092946246 0.14205828 0.009284374 -0.10195904 0.03567216 -0.11609656 -0.030213222
0.14152277 -0.10742507 0.021877808 -0.14536251 0.28794426 0.20875822 0.1625225 -0.2760062
-0.09533454 0.07446742 -0.18526298 -0.19609894 -0.17626952 -0.15903105 0.2014253 0.2302592
00000000: 77a0 2cbe f6f9 8f3b 64f4 6cbe e5c6 5abe
00000010: 1d8a 1c3e 462b 3cbe 3bba d3bd a165 093e
00000020: 3aa1 73be 7ce8 5c3c 54ce 85bd ae02 fb3d
00000030: 14a6 933d 6ea1 fbbb 8674 95bb 8253 1fbe
00000040: ee41 38bd 5d10 9ebe 93f8 3b3e 1c2b bd3c
00000050: 6239 903d dc05 6e3d 4121 4c3e 1794 66bd
00000060: 44ad 3ebe 3a52 6dbc 1bf4 e6ba 85b1 89bd
00000070: efb0 e7bd a9e8 00be c80e 833e 6974 c6bd
00000080: 9436 43be 3230 503e 7626 843d 20e6 a4bd
00000090: 2ca5 c13d 0e15 963d 3998 2bbe 2daa f5bc
000000a0: 19c2 8c3e 0808 dfbc 0128 c7bd e5d8 0a3e
000000b0: 9a81 92be 3761 1fbe e3bf 0e3e eaf8 4cbd
000000c0: 1e21 e9bd 1c98 c13d 8fb0 18be 3063 88be
000000d0: 9da8 af3c b5bf ebbc 9e01 ad3d 9d4c 16bd
000000e0: effc f53c 8e1f b73d 1048 ef3b 12f0 03be
000000f0: 76bc 77be b699 0d3e 2904 cbbd 9553 773e
00000100: 90ad 903d 11a2 8abe 3fb9 833d b781 e5bd
00000110: 534b 1d3d 5423 3a3d a152 8e3e 129a 7ebd
00000120: c864 edbd 4e98 b43d f718 e63d 9e8d 79bd
00000130: f473 803e 08f4 3f3e f667 d6bd dc7a c0bd
00000140: c978 2abe 04d9 81be f737 f6bd 369b 45be
00000150: 5777 9fbc 71de 76be 561b c33c 4532 663e
00000160: ab4d b1bd 51d0 473d 8ad7 22be d339 bf3c
00000170: d89f 38be aa1c 763d 1f69 76be ba59 233e
00000180: d28b cabc 4151 373e 2e4c 5dbd 5942 8bbc
00000190: 8baa 40be d0d2 f3bc dfa6 eabd 3a93 b4bc
000001a0: 9115 cf3d 9a5a be3d ba77 113e 7d1d 183c
000001b0: e7cf d0bd f91c 123d 09c4 edbd b881 f7bc
000001c0: 58eb 103e ad01 dcbd 1739 b33c e9d9 14be
000001d0: 6e6d 933e b7c4 553e 4c6c 263e af50 8dbe
000001e0: c13e c3bd 6082 983d 94b5 3dbe 29ce 48be
000001f0: ff7f 34be 09d9 22be 6f42 4e3e 11c9 6b3e

network.2.weight f4 [64, 128]
0.0076521267 0.0010592019 0.023922786 0.129315 -0.03903762 0.18756631 0.07851479 0.0074968017
0.005017525 -0.015895613 -0.09040294 0.016105015 0.0379798 -0.0937645 0.10650155 -0.04625035
0.06822232 -0.023809979 -0.02153166 0.06100719 0.023850093 0.007929186 0.09556059 -0.14802244
-0.047896583 0.14413184 0.048228025 0.06784141 -0.038009305 0.06508256 0.032484658 -0.049559876
-0.010769327 -0.18491927 -0.12432774 0.051675793 0.19649272 -0.09008297 -0.25180012 0.015077137
-0.02292765 0.21243532 -0.014207312 -0.07940721 0.07447247 -0.22933877 0.077505864 -0.14889932
-0.08670397 -0.06254999 -0.04800033 -0.0338021 0.021429583 -0.005663333 -0.015221341 -0.03621118
0.1470262 0.024128478 -0.08318159 0.15397948 -0.100146085 0.06712668 -0.016814772 0.0014032467
0.09080509 0.04478898 -0.04495218 -0.11268584 -0.002925704 -0.020705992 0.066785544 -0.1034191
-0.09286952 0.14784662 0.01575552 -0.061521415 0.08933978 -0.04421547 -0.08859386 0.10153824
-0.0028760822 -0.11317853 0.0423484 -0.12705936 0.050967652 0.13030379 0.054669388 -0.013036505
-0.038803894 -0.12111662 0.14456707 -0.109354466 0.030275468 0.006949102 -0.055320363 0.03940958
-0.047930088 -0.042405043 0.002000773 0.106997326 0.042738155 0.002793914 0.10513275 0.16954955
0.0061653736 -0.09517391 -0.052572284 -0.025398508 0.081246585 -0.004382814 -0.336904 0.097123116
-0.09926565 -0.0499768 -0.03237186 0.0895556 -0.027189333 -0.09016073 -0.08273673 0.21952428
-0.07994411 0.01953279 0.12311057 -0.11889332 -0.014497561 0.17284006 0.11355826 -0.011330065
0.04013778 0.064942755 0.025863774 -0.088053875 -0.08707681 0.042650323 0.04688866 0.0060366266
-0.0044346065 0.10170495 -0.08431459 0.022037318 0.086669244 0.1696283 0.035636686 -0.16214037
-0.07616185 0.003428869 -0.10713276 -0.103063464 0.018971477 -0.31525922 -0.010612982 0.14995313
0.20135604 -0.24116577 0.1400741 0.0031613884 0.25550973 0.08331028 0.05370227 -0.04710518
0.20290285 -0.041991055 0.045732077 -0.13560659 -0.018140728 -0.026708817 0.09424857 0.10380689
-0.13525234 -0.106310435 -0.06572438 0.12278516 0.014609774 -0.044179693 -0.015669253 0.05522896
0.06721673 -0.15891576 0.03716017 -0.06128155 0.0020681303 -0.05772146 -0.019957311 -0.18307659
-0.07219432 0.111884356 0.05552884 0.068827316 0.06542614 -0.11964436 0.120197825 -0.33715338
-0.049341813 0.115621775 -0.015329125 0.022539292 -0.26351857 0.0064105866 0.020538269 0.43211472
-0.035870183 -0.015608309 0.020906126 -0.1944745 -0.1042626 -0.05860253 0.11525566 -0.08749048
0.05622385 0.27357057 -0.20239577 0.1824222 -0.20885582 0.26664698 -0.0667599 0.14705122
0.008430715 0.03177541 -0.023040539 0.016845714 -0.46525425 -0.39940178 0.10059147 0.050089255
0.1145389 -0.12225112 -0.032066617 -0.12112873 -0.37429482 0.17445484 -0.075504415 -0.039554223
-0.059511337 -0.07389488 0.020164516 -0.29338413 0.26583856 0.021612827 -0.02753213 0.06737228
-0.04362009 0.0836261 -0.21148074 -0.0015970261 0.02584534 0.06608152 0.03594799 -0.4085669
0.16782644 0.061511867 0.15428056 0.09090182 -0.1355099 -0.39599782 0.059571423 0.081199355
00000000: b1be fa3b ebd4 8a3a b8f9 c33c 276b 043e
00000010: e9e5 1fbd 6211 403e 5dcc a03d bba7 f53b
00000020: 0d6a a43b 8437 82bc 2d25 b9bd aaee 833c
00000030: b590 1b3d 9a07 c0bd 7c1d da3d 0271 3dbd
00000040: 25b8 8b3d 250d c3bc 2a63 b0bc ade2 793d
00000050: 4561 c33c 6be9 013c 45b5 c33d 3293 17be
00000060: 352f 44bd 4c97 133e c08a 453d 70f0 8a3d
00000070: a5af 1bbd 014a 853d a20e 053d 4cff 4abd
00000080: d571 30bc 7a5b 3dbe 8b9f febd ffa9 533d
00000090: 6335 493e 6c7d b8bd f2eb 80be 1906 773c
000000a0: c4d2 bbbc a588 593e c9c5 68bc 3fa0 a2bd
000000b0: 0685 983d c8d7 6abe 65bb 9e3d 1079 18be
000000c0: da91 b1bd 361a 80bd fe9b 44bd 1274 0abd
000000d0: 188d af3c 7b93 b9bb ee62 79bc 2d52 14bd
000000e0: 098e 163e 16a9 c53c 1c5b aabd ccac 1d3e
000000f0: 6419 cdbd b679 893d 22bf 89bc 25ed b73a
00000100: 05f8 b93d a674 373d c71f 38bd d5c7 e6bd
00000110: 2bbd 3fbb 9d9f a9bc dcc6 883d 65cd d3bd
00000120: 6032 bebd 1b65 173e b811 813c e1fd 7bbd
00000130: c6f7 b63d 481b 35bd b370 b5bd 48f3 cf3d
00000140: a77c 3cbb 25ca e7bd 8475 2d3d d91b 02be
00000150: 75c3 503d 5b6e 053e 02ed 5f3d 1197 55bc
00000160: d5f0 1ebd fe0b f8bd 6409 143e 3cf5 dfbd
00000170: 4204 f83c 4bb5 e33b 9b97 62bd f16b 213d
00000180: 5752 44bd e9b0 2dbd 671f 033b 6a21 db3d
00000190: 340e 2f3d 191a 373b d74f d73d 669e 2d3e
000001a0: e706 ca3b 8aea c2bd 0956 57bd 8810 d0bc
000001b0: 9c64 a63d b59d 8fbb ae7e acbe 7ce8 c63d
000001c0: ca4b cbbd 79b4 4cbd 5b98 04bd ed68 b73d
000001d0: 2abc debc 30a6 b8bd e071 a9bd f9ca 603e
000001e0: bdb9 a3bd 3b03 a03c 6521 fc3d 577e f3bd
000001f0: 2e87 6dbc fcfc 303e 3c91 e83d bda1 39bc
00000200: 8367 243d b500 853d 44e0 d33c 9755 b4bd
00000210: 5455 b2bd 1bb2 2e3d 530e 403d e5ce c53b
00000220: 2d50 91bb af4a d03d 21ad acbd 9b87 b43c
00000230: a57f b13d 0bb3 2d3e c6f7 113d 2008 26be
00000240: befa 9bbd e0b6 603b 6c68 dbbd f012 d3bd
00000250: 126a 9b3c a869 a1be 13e2 2dbc 508d 193e
00000260: 4730 4e3e 29f4 76be 966f 0f3e 4c2f 4f3b
00000270: 2cd2 823e 959e aa3d e9f6 5b3d 5cf1 40bd
00000280: c4c5 4f3e d0fe 2bbd 8f51 3b3d 74dc 0abe
00000290: dd9b 94bc 73cc dabc 6505 c13d b598 d43d
000002a0: 977f 0abe 49b9 d9bd 819a 86bd c976 fb3d
000002b0: d55d 6f3c c4f5 34bd ce5c 80bc c337 623d
000002c0: eda8 893d d0ba 22be 4335 183d 5d02 7bbd
000002d0: 7889 073b 566d 6cbd 847d a3bc 6e78 3bbe
000002e0: 9eda 93bd a023 e53d 3572 633d 56f5 8c3d
000002f0: 24fe 853d 1a08 f5bd 472a f63d 5e9f acbe
00000300: a41a 4abd 1ccb ec3d 0327 7bbc 52a4 b83c
00000310: e8eb 86be e60f d23b df3f a83c 243e dd3e
00000320: 9dec 12bd feb9 7fbc 5343 ab3c 5324 47be
00000330: a187 d5bd 3509 70bd 290b ec3d 352e b3bd
00000340: fb4a 663d 7111 8c3e d640 4fbe e3cc 3a3e
00000350: 4dde 55be f485 883e 6ab9 88bd 9894 163e
00000360: fb20 0a3c ef26 023d 83bf bcbc 0600 8a3c
00000370: ce35 eebe 647e ccbe e702 ce3d 642a 4d3d
00000380: 5f93 ea3d cc5e fabd 4958 03bd 5712 f8bd
00000390: 92a3 bfbe 4aa4 323e 0fa2 9abd 9c03 22bd
000003a0: 29c2 73bd 3356 97bd 0e30 a53c 7236 96be
000003b0: fe1b 883e 620d b13c 108b e1bc 7afa 893d
000003c0: fbaa 32bd 2944 ab3d 688e 58be 4e53 d1ba
000003d0: 9bb9 d33c bf55 873d 333e 133d ae2f d1be
000003e0: b2da 2b3e def3 7b3d b9fb 1d3e bc2a ba3d
000003f0: 1bc3 0abe 3ac0 cabe 2a01 743d d94b a63d

network.2.bias f4 [64]
0.0005260275 -0.017039172 0.040207304 0.088126674 -0.06352466 -0.021585211 -0.064880036 0.039764106
0.0351839 0.056973115 0.03667682 0.052234523 0.012688317 0.008154349 -0.058979772 0.077879906
0.082921095 -0.023832964 0.0016983155 0.09833166 -0.035415184 0.054973405 -0.016609667 0.10106157
-0.024607956 -0.05415071 0.0782435 0.07994333 -0.0484033 0.042107057 -0.050735384 0.08711627
-0.011339851 0.05268602 -0.034079753 0.00079933146 0.0067716767 0.06017483 0.08253932 -0.052541304
0.10658407 -0.102906846 0.09460429 -0.02077501 0.056696504 0.06590845 0.09816205 0.01910671
-0.029979054 0.07823789 -0.03289109 0.0057032285 0.078188695 -0.019597432 -0.08980013 -0.065623105
-0.032581862 -0.04015302 0.093856215 0.05367188 0.058855444 -0.1074141 -0.022473726 0.11424974
00000000: 1ce5 093a bc95 8bbc 6ab0 243d c27b b43d
00000010: 3819 82bd 78d3 b0bc d3df 84bd b0df 223d
00000020: fe1c 103d a45c 693d 6f3a 163d def3 553d
00000030: a9e2 4f3c d299 053c c694 71bd 807f 9f3d
00000040: 89d2 a93d 593d c3bc 039a de3a 1c62 c93d
00000050: 830f 11bd cb2b 613d ff10 88bc 5ef9 ce3d
00000060: a096 c9bc 23cd 5dbd 213e a03d 54b9 a33d
00000070: 8a42 46bd 7378 2c3d e8cf 4fbd 046a b23d
00000080: c8ca 39bc 4ccd 573d 3697 0bbd 3a8a 513a
00000090: f1e4 dd3b e279 763d 600a a93d 8d35 57bd
000000a0: c048 da3d d3c0 d2bd e5bf c13d 5b30 aabc
000000b0: 983a 683d 02fb 863d 2f09 c93d ad85 9c3c
000000c0: a296 f5bc 303b a03d cfb8 06bd 26e2 ba3b
000000d0: 6521 a03d cb8a a0bc 21e9 b7bd 6865 86bd
000000e0: 8f74 05bd 7e77 24bd b037 c03d 0cd7 5b3d
000000f0: 6812 713d ecfb dbbd d21a b8bc c5fb e93d

network.4.weight f4 [1, 64]
-0.08521768 0.23918992 -0.10059883 -0.32608306 0.40022588 0.47379473 -0.0011922568 0.15928443
0.28159496 0.4472519 0.3845826 -0.22417626 0.21349116 -0.13000461 -0.2527345 -0.18268283
0.2561086 0.39195976 -0.33428776 0.29489017 -0.071715005 -0.33459905 0.1928977 0.15806693
-0.010653362 0.24696502 -0.2216118 0.23990932 0.0350478 -0.30453795 -0.19226643 -0.16255014
0.17484331 0.2368683 0.19553827 -0.22281575 -0.09542807 0.27678528 0.30118838 -0.32285812
0.13475168 -0.3189807 -0.16087094 0.030690378 -0.262878 0.16539288 -0.1295728 0.2639132
0.013257727 -0.17794414 0.20876892 -0.045309607 0.2917063 0.45740333 -0.08687582 0.5585884
-0.18339366 -0.031694155 0.2604857 0.21122311 0.302809 -0.1671932 0.29980662 0.15222706
00000000: 9b86 aebd 34ee 743e c206 cebd 5cf4 a6be
00000010: 68ea cc3e 3995 f23e 8045 9cba 751b 233e
00000020: 372d 903e 33fe e43e 03e8 c43e 768e 65be
00000030: 6d9d 5a3e ee1f 05be 6b66 81be 3511 3bbe
00000040: ab20 833e f3ae c83e c427 abbe d8fb 963e
00000050: 51df 92bd 9150 abbe fa86 453e 4cdc 213e
00000060: 708b 2ebc 66e4 7c3e 34ee 62be caaa 753e
00000070: 488e 0f3d 66ec 9bbe 7ee1 44be 8b73 26be
00000080: 200a 333e 9b8d 723e 2f3b 483e d029 64be
00000090: cb6f c3bd cdb6 8d3e 5d35 9a3e a94d a5be
000000a0: 58fc 093e 7051 a3be 5abb 24be 636a fb3c
000000b0: f297 86be c05c 293e bbae 04be a21f 873e
000000c0: f036 593c fd36 36be 85c7 553e 9196 39bd
000000d0: 875a 953e c530 ea3e f3eb b1bd a6ff 0e3f
000000e0: 8ccb 3bbe bbd1 01bd 625e 853e df4a 583e
000000f0: c809 9b3e b234 2bbe 4180 993e 69e1 1b3e
